signlanguage.onnx (onnx, 227001 bytes, 12 tensors)

conv1.bias f4 [6]
0	0x3eada28b	0.33913073
1	0xbdea363a	-0.11436124
2	0xbc8d51cf	-0.017250923
3	0xbc5ccb05	-0.013476138
4	0xbf65621c	-0.8960283
5	0xbd45de34	-0.048307613

conv1.weight f4 [6, 1, 3, 3]
0	0x3e9e01dd	0.30860797
1	0x3f38a1ac	0.7212169
2	0x3eaeb161	0.34119704
3	0xbd213baa	-0.03936354
4	0x3e8f81a2	0.2802859
5	0xbd9ebcf6	-0.07750885
6	0xbebace9a	-0.3648575
7	0xbf470f78	-0.7775798
8	0x3d7a76e0	0.061148524
9	0xbd00c918	-0.031441778
10	0xbf879833	-1.0593323
11	0xbe8a3e3b	-0.27000603
12	0x3f005c2b	0.5014064
13	0xbe4e2129	-0.20129837
14	0x3e9fd567	0.312175
15	0x3f081b32	0.53166497
16	0xbe8274e7	-0.25479814
17	0x3db05cea	0.08611472
18	0xbf7479f6	-0.954986
19	0x3f05bed1	0.5224429
20	0x3ecc8b2e	0.39949936
21	0x3e95c7ed	0.29254094
22	0x3f3b9bf8	0.73284864
23	0xbc98c895	-0.018650332
24	0xbde2c2b7	-0.11072295
25	0x3e37e30c	0.17957705
26	0x3e8e5221	0.27797034
27	0x3efcb1fe	0.49354547
28	0xbeec486c	-0.46149004
29	0xbe5215ae	-0.20516083
30	0xbe7ed63b	-0.2488641
31	0xbecff276	-0.4061467
32	0xbed5e0c6	-0.4177305
33	0xbd3ea3a6	-0.046542786
34	0xbe769ef8	-0.2408408
35	0xbe1d18ca	-0.15341488
36	0x3ed8b340	0.42324257
37	0x3eb75eb9	0.35814455
38	0xbe060058	-0.13086069
39	0xbe96c711	-0.2944875
40	0x3ecb14f5	0.39664426
41	0x3eb5253f	0.3537998
42	0xbe86fb73	-0.26363716
43	0x3e01df9a	0.12682953
44	0x3e074d9e	0.13213202
45	0x3f985a57	1.190257
46	0xbe7e641a	-0.24842873
47	0xbf1f4742	-0.62218106
48	0x3ee406d5	0.44536462
49	0xbf843901	-1.0329896
50	0xbed88fe2	-0.42297274
51	0x3f62e131	0.88624865
52	0xbeafdee9	-0.34349754
53	0x3e408ddc	0.18804115

conv2.bias f4 [6]
0	0xbea8f732	-0.33001095
1	0x3e556d81	0.20842554
2	0x3ddf4ca5	0.10903291
3	0x3ec12c89	0.3772929
4	0x3c8d1cf6	0.017225724
5	0xbdde0e94	-0.10842624

conv2.weight f4 [6, 6, 3, 3]
0	0xbe9c71e6	-0.30555648
1	0x3e20e253	0.15711336
2	0x3e0ceeae	0.13762924
3	0xbe6ed606	-0.23323831
4	0xbdb992b9	-0.09061188
5	0x3c0a8a5d	0.00845584
6	0xbe2658cc	-0.16244811
7	0xbd02243f	-0.03177285
8	0xbdcc2ad1	-0.09969104
9	0xbcd01baf	-0.025403826
10	0xbd3e85db	-0.046514373
11	0xbdeb5281	-0.11490346
12	0x3ca6044c	0.02026572
13	0x3d25366c	0.040335104
14	0xbdfea862	-0.1243446
15	0x3c7faa7b	0.015604611
16	0x3d9ebfe3	0.07751443
17	0xbdb8d526	-0.0902503
18	0xbd95f89b	-0.07322808
19	0x3e00ae69	0.12566532
20	0x3e82da0c	0.25556982
21	0xbeb1e32f	-0.3474364
22	0x3e881308	0.2657702
23	0x3df7273d	0.12068031
24	0xbecc3def	-0.39891002
25	0xbc83b48f	-0.016077308
26	0x3e896636	0.26835793
27	0xbae91597	-0.0017782924
28	0x3deefe2d	0.11669574
29	0x3db19d14	0.086725384
30	0x3e00ff74	0.12597448
31	0x3f27dd36	0.65571916
32	0x3d6a092d	0.057137657
33	0x3daa28f9	0.08308596
34	0x3efd07a3	0.4941989
35	0xbe80715e	-0.25086492
36	0xbd881e53	-0.06646409
37	0x3e166a77	0.1468905
38	0x3e422b4d	0.1896183
39	0xbe4f6bd1	-0.20255972
40	0x3ca93614	0.02065567
41	0xbd3761cd	-0.044771004
42	0xbd3ad791	-0.045615736
43	0x3cda6950	0.026661545
44	0x3e601eae	0.21886703
45	0x3c82dcdf	0.01597446
46	0x3df914f8	0.121622026
47	0xbcbe0d3c	-0.02319967
48	0x3e9a1ac2	0.3009854
49	0x3de0ccdf	0.10976576
50	0xbd08d41a	-0.0334054
51	0x3f224580	0.633873
52	0x3ce20588	0.027590528
53	0xbe2e6ef7	-0.17034517
54	0x3e2ea81a	0.17056313
55	0x3ced97d4	0.029003061
56	0x3d27782f	0.0408861
57	0x3de52458	0.11188573
58	0xbd8f446c	-0.06995472
59	0xbdc28e75	-0.09499828
60	0xbe12663f	-0.14296816
61	0x3e98befc	0.2983321
62	0x3e32b438	0.1745156
63	0xbe397ff4	-0.18115216
64	0xbe1d6d75	-0.15373786
65	0xbd3332d4	-0.043749645
66	0xbe94f46a	-0.29092723
67	0xbe456ff1	-0.19280984
68	0xbdcb8bc2	-0.09938766
69	0xbe17d06c	-0.148256
70	0x3e09d762	0.13461068
71	0x3d5a4484	0.053287998
72	0x3dad1a9f	0.08452343
73	0x3e772b6e	0.24137661
74	0x3e694959	0.22781886
75	0x3ebc0f64	0.36730492
76	0x3e80954d	0.25113907
77	0x3df3bf91	0.11901773
78	0x3e2b39c7	0.16721259
79	0xbcf64062	-0.030059997
80	0x3e524e72	0.20537737
81	0x3e2c7ae1	0.1684375
82	0xbe5a7000	-0.21331787
83	0xbe1e96c4	-0.154872
84	0xbd00c69b	-0.031439405
85	0xbe8c4a9b	-0.2740067
86	0xbe4813fc	-0.19538873
87	0xbdc1b275	-0.09457866
88	0xbc7646d9	-0.01503154
89	0x3e74ddfc	0.23912805
90	0x3e65bb62	0.22434762
91	0x3be97c6e	0.007125429
92	0x3eaaf11a	0.3338707
93	0x3d964780	0.07337856
94	0xbd94a96c	-0.07258877
95	0x3e8cc94e	0.27497333
96	0x3cf9163d	0.030406112
97	0xbceda62f	-0.029009907
98	0x3d9b8d92	0.07595362
99	0xbec1f073	-0.3787876
100	0xbe62b18c	-0.22138041
101	0xbe35493e	-0.17703721
102	0xbd49cc3b	-0.049267035
103	0xbe286a12	-0.16446713
104	0xbed3f9a7	-0.41401407
105	0xbd8d332a	-0.068945244
106	0x3e0748de	0.1321139
107	0xbe89bfb2	-0.26904064
108	0x3e298974	0.1655634
109	0x3e007587	0.12544833
110	0x3dcd89b1	0.10036028
111	0xbcdd9141	-0.027046802
112	0xbc97a3ad	-0.018510664
113	0xbd4aac48	-0.049480706
114	0x3b3ebda6	0.0029104738
115	0xbdb572cb	-0.08859786
116	0xbe2a786b	-0.16647498
117	0x3b385f3b	0.0028132934
118	0xbd729c2f	-0.05923098
119	0xbd03a538	-0.032139987
120	0xbcc06732	-0.023486707
121	0x3cb53508	0.022120014
122	0xbd4688d7	-0.048470344
123	0xbd5c1026	-0.053726338
124	0x3dddaf14	0.10824409
125	0xbcad274b	-0.0211369
126	0xbdbfe3cb	-0.0936962
127	0xbda833c2	-0.08212997
128	0x3c097c6d	0.008391482
129	0x3d53ab22	0.051676877
130	0x3c80e94d	0.015736246
131	0xbe0f285c	-0.1398024
132	0x3dbe98bb	0.09306475
133	0xbdafc46e	-0.08582388
134	0xbd33b96f	-0.043878015
135	0x3e81894c	0.25300062
136	0x3d77e831	0.06052417
137	0xbd89fc31	-0.06737555
138	0x3ea5830c	0.32326543
139	0x3d9097dc	0.07060215
140	0x3e483278	0.19550502
141	0x3e4fc2d3	0.20289163
142	0x3dcb758c	0.0993453
143	0x3e1e4685	0.15456589
144	0xbde96b7d	-0.11397455
145	0x3cb1327e	0.021630522
146	0x3e2505e6	0.16115531
147	0xbd8fb521	-0.070169695
148	0xbe0f39ae	-0.13986847
149	0x3cc50fb7	0.024055345
150	0x3d29e992	0.041482516
151	0x3df18dfc	0.117946595
152	0xbdada577	-0.084788255
153	0xbe23fb2a	-0.1601378
154	0xbe07c100	-0.13257217
155	0xbdb7fe26	-0.08984022
156	0xbdf43a7c	-0.119252175
157	0x3c326a9d	0.010889676
158	0xbdffa292	-0.1248218
159	0xbe169cea	-0.14708295
160	0xbe0cba51	-0.13742949
161	0xbe027da3	-0.12743239
162	0xbe89ca4e	-0.2691216
163	0xbefb7511	-0.49112752
164	0xbed1dec5	-0.40990272
165	0xbe967257	-0.2938411
166	0xbe21c526	-0.15797862
167	0xbda19d50	-0.07891333
168	0x3d4a9017	0.04945382
169	0x3e99ab06	0.30013293
170	0x3eecf9e2	0.46284395
171	0x3e7b2a40	0.24527836
172	0x3e7621da	0.24036351
173	0x3e5c776a	0.21529928
174	0x3dcd7945	0.10032896
175	0x3e5fc995	0.21854241
176	0xbd242436	-0.040073596
177	0x3c27a4d8	0.010232173
178	0xbd2985d1	-0.041387383
179	0xbe290142	-0.16504386
180	0xbf6b4000	-0.9189453
181	0xbeca23f4	-0.39480555
182	0x3d9dfb8e	0.07713996
183	0xbec44ef2	-0.3834148
184	0x3ec02d6b	0.3753465
185	0x3ea63744	0.3246404
186	0x3e9c0410	0.3047185
187	0x3f272278	0.6528697
188	0x3e27fc88	0.16404927
189	0x3ebdf0bc	0.37097728
190	0x3eb1f51f	0.34757325
191	0xbdc9c58e	-0.09852134
192	0x3e00f39b	0.12592928
193	0xbd54099f	-0.051766988
194	0xbedfd7e1	-0.4371939
195	0xbda14fd7	-0.07876556
196	0xbeb9f6a4	-0.36320984
197	0xbed57bf1	-0.41696122
198	0xbe38c89f	-0.18045281
199	0xbe8b8933	-0.27253112
200	0xbe93cfa9	-0.2886937
201	0x3cd89b14	0.026441135
202	0x3cb6dcd6	0.0223221
203	0xbd9f7379	-0.077856965
204	0x3e608d0f	0.2192881
205	0x3e878dde	0.26475424
206	0x3e59c032	0.21264723
207	0x3f1b8311	0.60746866
208	0x3e00339f	0.12519692
209	0xbe71d295	-0.23615487
210	0xbd2cb846	-0.042167924
211	0xbdb7926b	-0.08963474
212	0xbe543ff1	-0.20727517
213	0x3c65f6cf	0.014035895
214	0xbe8212ee	-0.25405067
215	0xbd9ae77a	-0.07563682
216	0x3e3e6d99	0.18596496
217	0x3f23e07a	0.640144
218	0x3eabcf2c	0.33556497
219	0xbf258c4b	-0.64667195
220	0x3e2992c2	0.1655989
221	0x3f058470	0.5215521
222	0xbf4618c1	-0.7738152
223	0xbe4c6b6e	-0.19962856
224	0x3e94b506	0.2904436
225	0xbd05a417	-0.03262719
226	0xbdca0c24	-0.09865597
227	0xbe7adfcc	-0.24499434
228	0x3e1a3b92	0.15061787
229	0xbe02b3b7	-0.12763868
230	0xbdf18665	-0.11793212
231	0x3e7ac025	0.2448736
232	0x3e419600	0.18904877
233	0x3b4e80c7	0.0031509863
234	0xbdc634c3	-0.09678032
235	0x3ea12f6f	0.314815
236	0x3ed5451f	0.41654298
237	0xbe8b588f	-0.27216002
238	0x3c57270b	0.013131867
239	0x3ea35122	0.31897837
240	0xbf0b8ac1	-0.54508597
241	0xbed26205	-0.41090408
242	0x3def2b65	0.11678199
243	0x3d82560b	0.06364068
244	0xbe0dcbcf	-0.13847278
245	0xbf06ad92	-0.526086
246	0x3e2bc380	0.16773796
247	0x3e0ef434	0.13960344
248	0xbe7ec03d	-0.2487802
249	0x3e6405cf	0.22267841
250	0x3e21c01b	0.15795939
251	0xbe394255	-0.1809171
252	0xbe2c7524	-0.1684156
253	0x3e565344	0.20930201
254	0x3e2e51b1	0.1702335
255	0xbe9460e4	-0.28980172

conv3.bias f4 [16]
0	0xbdb8e367	-0.090277486
1	0xbe21ff89	-0.15820135
2	0xbed18c72	-0.40927464
3	0xbe706a8b	-0.23478143
4	0x3d271e79	0.040800545
5	0xbdcc2fda	-0.099700645
6	0xbded746f	-0.115944736
7	0xbe3f961c	-0.18709606
8	0xbe969e97	-0.2941787
9	0xbebe05f2	-0.3711391
10	0xbdfbc99a	-0.12294312
11	0xbeb9b409	-0.36270168
12	0xbe0c2118	-0.136845
13	0xbe114a6c	-0.14188546
14	0xbe2d12a3	-0.1690164
15	0xbe8630e9	-0.2620919

conv3.weight f4 [16, 6, 3, 3]
0	0xbe3de79d	-0.18545385
1	0xbc8dfe25	-0.0173331
2	0x3ec64b37	0.3872926
3	0xbe5e8ffd	-0.21734615
4	0x3da58741	0.08082438
5	0x3dbc90d5	0.09207312
6	0xbef54183	-0.47901544
7	0xbe0af19c	-0.13568729
8	0x3e948286	0.2900583
9	0x3eceea89	0.4041331
10	0xbe48d66e	-0.19613048
11	0xbf27cf53	-0.65550727
12	0x3f23b948	0.6395459
13	0xbe4e0b02	-0.20121387
14	0xbeebc548	-0.4604895
15	0x3ef54317	0.47902748
16	0xbc0d8e32	-0.008639859
17	0xbf1b0f25	-0.60569984
18	0xbc74a8c6	-0.014932817
19	0xbde769a5	-0.11299447
20	0x3ddafd86	0.10692887
21	0x3c1d20f8	0.00959038
22	0xbdc51c34	-0.0962452
23	0xbda3199d	-0.0796387
24	0xbe36349b	-0.17793505
25	0xbe4f7a07	-0.20261393
26	0x3c020b25	0.007937227
27	0xbd4463f5	-0.04794689
28	0xbe5b45a0	-0.21413279
29	0x3e081daf	0.13292573
30	0xbcb69d1b	-0.02229171
31	0xbe7fa265	-0.24964292
32	0x3da4912c	0.08035502
33	0xbe6df227	-0.23236905
34	0xbebfca19	-0.37458876
35	0x3eac7eb2	0.3369041
36	0xbee92dbf	-0.45542714
37	0xbec3aab1	-0.38216165
38	0x3d2b41a7	0.041810658
39	0xbeacf75b	-0.33782467
40	0xbed2581a	-0.4108284
41	0xbe1fb623	-0.15596823
42	0xbe23e1d5	-0.16004117
43	0xbe3c6786	-0.18398866
44	0x3d756763	0.05991305
45	0xbe21c684	-0.15798384
46	0x3c07c8ba	0.008287603
47	0xbe7d6c3d	-0.24748321
48	0x3d6c9e5b	0.057768207
49	0x3d903339	0.0704102
50	0xbe266c98	-0.16252363
51	0x3e020975	0.1269892
52	0x3e7a01b9	0.2441472
53	0x3d00eb28	0.031474262
54	0x3e2bea47	0.16788588
55	0x3dc35615	0.09537903
56	0xbe880b02	-0.26570898
57	0x3dbbb132	0.09164657
58	0x3e556867	0.20840608
59	0xbe15fcb5	-0.14647181
60	0x3d216d6f	0.039411005
61	0xbdbf629c	-0.0934498
62	0xbeadf651	-0.33976987
63	0xbf58019f	-0.84377474
64	0xbeccef89	-0.400265
65	0x3eac4720	0.33648014
66	0xbf184db7	-0.59493583
67	0x3dcfe801	0.10151673
68	0x3f582c46	0.84442556
69	0xbeb1aaec	-0.34700716
70	0x3e08bc9e	0.13353202
71	0x3f32c954	0.6983845
72	0x3cfbc5a3	0.030733889
73	0x3e4a4e68	0.19756472
74	0x3e2a7986	0.1664792
75	0xbd32d2bd	-0.043658007
76	0xbd25867a	-0.04041145
77	0xbd67f6d2	-0.05663187
78	0xbd020e30	-0.03175181
79	0xbde0dcc9	-0.109796114
80	0xba61c2ce	-0.0008612097
81	0xbdf77f3e	-0.120848164
82	0x3d945c25	0.07244138
83	0xbd98ee45	-0.07467321
84	0xbcfb0d04	-0.030645855
85	0x3e570cfe	0.2100105
86	0x3d69b995	0.05706175
87	0x3e2b99af	0.16757844
88	0x3eb23416	0.34805363
89	0xbe70f248	-0.23529923
90	0x3dcbf8dc	0.099595755
91	0xbec4b010	-0.38415575
92	0xbe0f019c	-0.13965458
93	0x3d895991	0.067065366
94	0xbdb13ce2	-0.086541906
95	0xbe106071	-0.1409929
96	0x3e866e3d	0.2625598
97	0xbe0e724b	-0.13910787
98	0x3e1c47c6	0.15261754
99	0xbead4fb6	-0.33849877
100	0xbdca18ce	-0.09868012
101	0xbe1b6bdf	-0.15177868
102	0xbe81bc6e	-0.25339073
103	0x3d7ca36b	0.061679285
104	0xbeb006b9	-0.3438013
105	0xbd05ffea	-0.03271476
106	0xbe1be913	-0.1522563
107	0xbec34e10	-0.38145494
108	0xbedfffc3	-0.43749818
109	0x3f3bfe21	0.73434645
110	0x3ed52f9c	0.41637886
111	0xbf27b9fe	-0.65518177
112	0x3d39cc3b	0.045360785
113	0x3ed76c73	0.42074928
114	0xbe63dbeb	-0.22251861
115	0xbf1611ef	-0.58621114
116	0xbe307ca3	-0.17235045
117	0xbe1bff5d	-0.15234132
118	0xbf5896d0	-0.8460512
119	0x3aee46a4	0.0018179012
120	0x3eeba51c	0.46024406
121	0xbef20359	-0.4726818
122	0x3d1567c0	0.036475897
123	0x3efe809a	0.4970749
124	0x3eb81130	0.35950613
125	0xbdc1faba	-0.094716504
126	0xbd436865	-0.04770698
127	0xbc5a6b1e	-0.013331203
128	0xbd92d579	-0.07169623
129	0xbca13d83	-0.019682651
130	0xbe8a41ee	-0.27003425
131	0xbbcdb32d	-0.006277463
132	0x3e30908b	0.17242639
133	0xbe3bb47d	-0.1833057
134	0xbda519a1	-0.08061529
135	0xbe46c427	-0.19410764
136	0xbd02dd31	-0.031949226
137	0x3e030c7b	0.1279773
138	0xbee4a6bd	-0.4465846
139	0x3d0d4d5b	0.0344976
140	0x3eb56284	0.35426724
141	0xbe2c6f5a	-0.16839352
142	0xbeeed31e	-0.46645445
143	0x3db54673	0.08851328
144	0xbed6a432	-0.41922146
145	0x3eac94a3	0.3370715
146	0x3f08bd10	0.53413486
147	0xbe0279ad	-0.12741728
148	0xbd77633f	-0.060397383
149	0x3f0fe122	0.562029
150	0x3ece5dcc	0.40305936
151	0xbe483cd9	-0.19554462
152	0x3e79dbd1	0.2440026
153	0xbebd5bc7	-0.36984083
154	0x3e5c7521	0.21529056
155	0xbd563c4a	-0.05230359
156	0xbdc77296	-0.097386524
157	0xbd101f2c	-0.035185978
158	0xbe3deb4e	-0.18546793
159	0xbe5ff243	-0.2186976
160	0xbe8f062d	-0.279344
161	0xbe8417ce	-0.25799412
162	0xbe5580b3	-0.20849876
163	0x3e0adf2a	0.13561693
164	0x3d85fa6a	0.06541903
165	0x3e58f3c3	0.21186738
166	0x3ed7d8c3	0.42157564
167	0x3e3c984a	0.18417469
168	0xbd4eac51	-0.050457302
169	0x3e8b31e2	0.27186495
170	0x3e251230	0.16120219
171	0x3e835f08	0.2565844
172	0xbcf72879	-0.030170666
173	0xbe06cad1	-0.13163306
174	0xbe0dbe08	-0.13842022
175	0xbe84d4fb	-0.2594374
176	0xbe9e92d9	-0.3097141
177	0xbe4e2377	-0.20130716
178	0xbe573d3a	-0.2101945
179	0xbeaddd23	-0.33957776
180	0xbe064b86	-0.13114747
181	0xbc2663e1	-0.010155649
182	0x3e276dc3	0.16350465
183	0xbe2313bd	-0.15925498
184	0x3e38b281	0.18036844
185	0x3e362806	0.17788705
186	0xbe7d1357	-0.24714409
187	0xbdd7ca92	-0.10536684
188	0xbd042299	-0.032259557
189	0xbe91f1e3	-0.28504857
190	0xbeca1c76	-0.3947484
191	0xbdb7c471	-0.08973015
192	0xbe8a23f5	-0.26980558
193	0xbd9036a4	-0.07041672
194	0xbd0cef6d	-0.03440802
195	0xbdc41123	-0.09573581
196	0x3e2e7c6e	0.17039654
197	0x3e36b2b6	0.1784161
198	0x3e827d18	0.25486064
199	0x3ea5e0d3	0.3239809
200	0xbce88c45	-0.028387198
201	0x3c9f488e	0.019443776
202	0xbd2080ef	-0.03918546
203	0x3ab1f61c	0.0013577375
204	0x3ec7164e	0.38884205
205	0xbe1b992e	-0.15195152
206	0xbe4258c4	-0.18979174
207	0x3e9bf441	0.30459788
208	0x3e76a4f7	0.24086367
209	0x3b8e8d70	0.0043503568
210	0xbbd15e7d	-0.0063894377
211	0xbd8e622e	-0.0695232
212	0xbe613eb6	-0.21996579
213	0x3cbbf47c	0.022943728
214	0xbcc3309a	-0.023826886
215	0xbe2ad1dc	-0.16681617
216	0x3e7afe6b	0.24511115
217	0x3e1df0cc	0.15423888
218	0xbd64878b	-0.055793326
219	0x3e87151b	0.2638329
220	0x3cf44bc1	0.029821279
221	0xbcde14f0	-0.027109593
222	0x3d955017	0.072906666
223	0xbd8ef3c1	-0.06980086
224	0xbe2e94e0	-0.17048979
225	0xbdd1ecad	-0.102502204
226	0xbe092eae	-0.13396713
227	0xbc93bbfa	-0.01803397
228	0xbdf382b7	-0.11890166
229	0xbe4a934d	-0.19782753
230	0xbe6d1b27	-0.23154889
231	0xbd97af3a	-0.07406469
232	0xbe1b7426	-0.15181026
233	0x3daa735c	0.08322784
234	0x3d2c5bd7	0.042079773
235	0x3d38dd3a	0.045132853
236	0x3bcd7ca0	0.00627096
237	0x3c1f6f3e	0.009731112
238	0x3d963ef6	0.073362276
239	0xbdc6147a	-0.09671874
240	0x3e189570	0.14900756
241	0x3db26b65	0.0871189
242	0xbd1f6571	-0.0389151
243	0x3df324cf	0.11872255
244	0xbe147543	-0.14497857
245	0xbbd35df1	-0.0064504077
246	0xbc0757f3	-0.008260715
247	0xbd7174ef	-0.058949407
248	0xbe2cca7a	-0.16874114
249	0xbdaeaf22	-0.08529498
250	0xbc585e47	-0.013206071
251	0x3dd2973a	0.102827504
252	0xbcb11c7a	-0.021620024
253	0x3df736b6	0.12070982
254	0x3ab2e783	0.0013649318
255	0xbdb25151	-0.08706916

fc1.bias f4 [120]
0	0xbd4049a7	-0.04694524
1	0x3d46d495	0.048542578
2	0x3d0b7d27	0.0340549
3	0xbc66d8ef	-0.014089807
4	0xbd111b4d	-0.035426427
5	0x3d1a6c44	0.037700906
6	0x3c5b1e47	0.013373918
7	0xbbc7c652	-0.0060966397
8	0xbd2901e2	-0.04126156
9	0xbcddab72	-0.02705929
10	0xbc85bb0d	-0.016324544
11	0x3d0b9f98	0.034087747
12	0xbd337544	-0.043813005
13	0x3d3a6391	0.04550511
14	0xbca55939	-0.020184146
15	0x3d2ec3e6	0.042667292
16	0xbc723d8e	-0.014785184
17	0x3ddf2b03	0.10896876
18	0xbd6550e9	-0.055985365
19	0xbbb87cb2	-0.005630099
20	0x3c7cb6fc	0.015424486
21	0x3d3cd957	0.04610571
22	0xbce1c76b	-0.02756091
23	0xbdab0815	-0.08351151
24	0xbcd30452	-0.025758896
25	0xbc66483d	-0.014055309
26	0xbd0bedce	-0.034162335
27	0x3e3313bc	0.17487997
28	0xbdbabf3e	-0.09118508
29	0xbcf61513	-0.030039346
30	0xbb3d3ca4	-0.0028875256
31	0x3bc85e29	0.0061147404
32	0x3d40e0cb	0.04708938
33	0xbd9b398b	-0.07579335
34	0x3d3cd246	0.04609897
35	0x3da6a3ef	0.081367366
36	0xbc8b9769	-0.017039971
37	0x3e520664	0.2051025
38	0xbd46e553	-0.048558544
39	0x3df82b4d	0.12117634
40	0xbc655aac	-0.013998669
41	0x3d282e85	0.04105999
42	0xbcd52979	-0.026020752
43	0xbd0266af	-0.031836208
44	0x3c64abcc	0.013956975
45	0x3d984a98	0.07436103
46	0x3a8acc8e	0.0010589527
47	0x3a9e73e8	0.0012088986
48	0x3d9b5e69	0.07586367
49	0xbc551c8c	-0.013007294
50	0xbc3b1a76	-0.011419883
51	0x3c625733	0.013814735
52	0xbd49393c	-0.04912685
53	0x3daffafb	0.085927926
54	0x3d609356	0.05482801
55	0x3df447b8	0.11927742
56	0x3db347c3	0.08753922
57	0x3b08a488	0.0020850021
58	0x3cfd3e65	0.030913541
59	0xbbae2baf	-0.005315266
60	0xbce8c5fb	-0.028414717
61	0x3e21d54f	0.15804027
62	0x3d20420a	0.03912548
63	0x3d393905	0.045220394
64	0x3d8fbfaf	0.070189826
65	0x3d0464e5	0.032322783
66	0xbc5e9aa3	-0.013586673
67	0xbc3b1800	-0.011419296
68	0x3d833151	0.06405891
69	0x3d14bc3b	0.036312323
70	0xbc6a6b4b	-0.014307807
71	0x3c58a0ee	0.013221962
72	0xbda593a0	-0.08084798
73	0x3da59665	0.08085326
74	0xbd16740f	-0.036731776
75	0x3ce25f30	0.02763328
76	0x3e2a3924	0.1662336
77	0x3d70c5af	0.058782276
78	0xbca316d4	-0.019908346
79	0x3ce7764f	0.028254656
80	0xbd679e7f	-0.056547638
81	0x3d36a697	0.044592466
82	0xbcb671ef	-0.022271125
83	0xbc1a2a5e	-0.009409515
84	0xbd63f075	-0.05564924
85	0xbdbe3c1a	-0.09288807
86	0xbd0206cb	-0.03174476
87	0x3db63a01	0.08897782
88	0xbdb09441	-0.08622027
89	0xbcb9bc40	-0.022672772
90	0x3cf23439	0.029565917
91	0x3c559679	0.013036364
92	0x3c676d5d	0.014125195
93	0x3d8544da	0.06507273
94	0xbcb0e5a5	-0.021593878
95	0x3db53ca3	0.08849456
96	0x3bcb93ef	0.0062127034
97	0xbd78f7e8	-0.060783297
98	0x3c2cf4ff	0.0105564585
99	0xbbb5f364	-0.005552696
100	0x3ca7e7da	0.020496298
101	0x3cfdc59c	0.030978017
102	0xbc07a5c9	-0.008279272
103	0xbcfa2fa0	-0.030540287
104	0xbc02df0b	-0.007987748
105	0xbd1d50e5	-0.038407225
106	0xbbf84b76	-0.007577355
107	0xbc321ecb	-0.010871599
108	0xbd1d1909	-0.038353954
109	0xbe108a7b	-0.14115326
110	0xbd3cbdaf	-0.046079334
111	0x3d454d27	0.04816928
112	0xbcebb8db	-0.02877467
113	0xbd9d6d2b	-0.07686838
114	0x3cf09d37	0.02937184
115	0xbe05c7b5	-0.13064463
116	0xbc234e2d	-0.009967369
117	0xbdf113f2	-0.117713824
118	0x3cc15bfe	0.023603436
119	0x3e03e557	0.12880455

fc1.weight f4 [120, 400]
0	0x3aa15638	0.001230902
1	0xbcffab28	-0.031209543
2	0xbd9561fa	-0.07294078
3	0xbdfed3f2	-0.12442769
4	0xbdf21655	-0.11820666
5	0xbc0373a5	-0.008023177
6	0xbe379e37	-0.17931448
7	0xbdb858c0	-0.09001303
8	0xbdf99886	-0.12187295
9	0xbd14b95a	-0.036309578
10	0x3d772957	0.06034216
11	0xbe233a53	-0.15940218
12	0xbe32095d	-0.17386384
13	0x3e1257de	0.14291331
14	0xbcc319ff	-0.023816107
15	0x3e01539a	0.12629548
16	0xbdc9fb83	-0.09862425
17	0xbd8c0e31	-0.06838644
18	0x3e252638	0.1612786
19	0xbd92dcd6	-0.07171027
20	0x3c7306ac	0.014833134
21	0xbdfcaacf	-0.12337267
22	0xbdd36d58	-0.1032359
23	0xbe32f79d	-0.1747727
24	0xbdd9973e	-0.1062455
25	0xbe1d6d6e	-0.15373775
26	0x3d271cdd	0.04079901
27	0xbe094ff3	-0.13409404
28	0xbd2131ac	-0.03935401
29	0x3ddff4b7	0.109353475
30	0xbe02c4fd	-0.12770458
31	0x3d8d5875	0.069016375
32	0x3c1c0251	0.009522037
33	0xbb9fe8f5	-0.0048800656
34	0x3c6b0fa9	0.014346995
35	0x3bdcb551	0.006735482
36	0x3dccb80e	0.09996043
37	0x3c768313	0.015045899
38	0x3ca0b47f	0.019617317
39	0x3d91b233	0.07114067
40	0x3e026226	0.12732753
41	0x3e0e4790	0.13894486
42	0xbd853fd5	-0.065063156
43	0x3d93b9a1	0.0721314
44	0x3e1386f1	0.14406945
45	0x3c9b10a2	0.01892883
46	0x3c1ca554	0.009560902
47	0xbd401f91	-0.046905104
48	0x3ab2f3f0	0.0013653021
49	0xbd71668d	-0.05893569
50	0x3cf24148	0.029572144
51	0x3d003081	0.031296257
52	0x3db80f83	0.089873336
53	0x3c73b5f5	0.014874925
54	0xbc9ec41c	-0.019380622
55	0x3ce2c598	0.02768211
56	0x3be53d7c	0.006995855
57	0x3e3b270f	0.18276618
58	0x3dc07d17	0.09398859
59	0x3d8ba2b8	0.068181455
60	0xbc414eed	-0.0117986025
61	0x3e0a9f13	0.13537244
62	0x3de57cef	0.1120547
63	0x3cbca718	0.023028895
64	0xbda511d6	-0.080600426
65	0x3e15d1f1	0.14630868
66	0x3c25aeed	0.010112506
67	0xbe31b6f8	-0.17354953
68	0xbe176a88	-0.14786732
69	0xbe45f098	-0.1933006
70	0x3cd59bc4	0.026075251
71	0xbe6e86c4	-0.23293597
72	0xbe3c0670	-0.1836183
73	0xbd902a83	-0.070393585
74	0xbe79dd0e	-0.24400732
75	0x3c95ffec	0.01831051
76	0xbd83836d	-0.06421552
77	0x3de4477e	0.111464486
78	0x3dd6ae2a	0.10482438
79	0x3d413fcb	0.04717998
80	0x3c9c60de	0.019089159
81	0xbd85a792	-0.06526102
82	0x3dc75412	0.09732832
83	0x3e31ccf4	0.1736334
84	0x3d7c3cbe	0.061581366
85	0x3e27f090	0.16400361
86	0xbc771d97	-0.015082738
87	0xbd01d12e	-0.03169363
88	0x3d1e0535	0.038579185
89	0x3d06d8a1	0.032921437
90	0x3dd18d7c	0.10232064
91	0x3d5c5fe8	0.0538024
92	0xbd3ba2dc	-0.04580961
93	0xbd7b61a8	-0.06137243
94	0x3c071588	0.00824488
95	0xbda13dd6	-0.078731224
96	0xbb116c88	-0.0022189934
97	0xbd89bfac	-0.06726012
98	0xbd844f8e	-0.06460486
99	0x3c5e1913	0.013555783
100	0x3cd7f441	0.026361587
101	0xbca08587	-0.01959492
102	0x3c89ea06	0.016835224
103	0xbc44abb0	-0.012003824
104	0x3d453719	0.04814825
105	0xbbd6ea1f	-0.006558671
106	0x3bd4bd4c	0.0064922925
107	0xbd9d2a3b	-0.076740704
108	0x3d0f2795	0.034949858
109	0x3d7821d6	0.060579143
110	0x3d869018	0.065704525
111	0xbc0adec7	-0.008475966
112	0xbc9ebf4e	-0.01937833
113	0x3d0d352a	0.03447453
114	0x3d23683c	0.039894328
115	0x3d7571c6	0.059922956
116	0x3d282422	0.041050084
117	0xbcba4809	-0.022739427
118	0xbc8c7267	-0.017144395
119	0x3cf9cdd5	0.030493656
120	0x3d09527a	0.03352592
121	0xbcb0b016	-0.02156834
122	0x3d118a2c	0.03553216
123	0x3b7dc552	0.0038722348
124	0x3d5fc5c5	0.054631967
125	0xbdc8f455	-0.09812228
126	0x3d700ac5	0.05860402
127	0xbda3b638	-0.0799374
128	0x3d7710b4	0.060318664
129	0x3d5fb766	0.05461826
130	0x3c475b8d	0.0121678235
131	0xbc829a35	-0.015942672
132	0xbe225ca4	-0.15855652
133	0x3c8472dc	0.01616805
134	0x3c9ebb47	0.01937641
135	0x3e02376b	0.12716453
136	0x3dac5cf9	0.084161706
137	0xbe3f93ad	-0.18708678
138	0x3d6f9d0a	0.058499373
139	0x3db9a12f	0.090639465
140	0x3e116654	0.14199191
141	0x3bccb161	0.006246731
142	0xbe078b1b	-0.13236658
143	0xbda2211c	-0.07916471
144	0xbcc357c3	-0.023845559
145	0x3e08c39a	0.13355866
146	0xbde6f093	-0.11276355
147	0xbe05f0fb	-0.13080208
148	0x3d1d47ae	0.038398437
149	0xbac8877a	-0.0015299164
150	0xbc0dee1d	-0.008662728
151	0x3b8ee7f0	0.004361145
152	0x3bab6b8b	0.005231326
153	0xbc9b0aa2	-0.018925969
154	0x3c951482	0.018198255
155	0x3d0609f1	0.032724325
156	0x3c9543c1	0.018220784
157	0xba8b31cf	-0.0010619703
158	0x3d51ead0	0.051249325
159	0xbd25329b	-0.040331464
160	0xbccc425d	-0.024933988
161	0x3cabe40f	0.02098277
162	0x3cf56490	0.029955178
163	0xbc88a047	-0.016677989
164	0xbbba10d3	-0.005678275
165	0x3d063024	0.032760754
166	0x3d05011b	0.032471757
167	0xbcbc7fc6	-0.023010146
168	0x3cad38e4	0.021145292
169	0xbc2643b2	-0.010147976
170	0x3c16549b	0.009175445
171	0xbd3b35d7	-0.045705643
172	0xbce44f51	-0.027869852
173	0xbd4c7e80	-0.049925327
174	0xbd458634	-0.04822369
175	0xbb941225	-0.0045187646
176	0xbde514b4	-0.111855894
177	0xbd2d5f9a	-0.0423275
178	0x3d19faac	0.037592575
179	0x3b42a4b7	0.0029700228
180	0xbdeb2cac	-0.1148313
181	0xbcdea45a	-0.027177978
182	0x3ca163cc	0.019700907
183	0x3e017d06	0.12645349
184	0xbd2376f1	-0.039908353
185	0xbd5cb109	-0.05387977
186	0x3bc6a42c	0.0060620513
187	0x3c9a1d98	0.01881294
188	0x3d82254f	0.06354772
189	0xbd993e65	-0.07482604
190	0x3d9c2160	0.07623553
191	0x3db52c35	0.088463224
192	0xbd4cf29e	-0.050036065
193	0xbd9d19cf	-0.07670938
194	0xbd8486d5	-0.0647103
195	0x3d962904	0.07332042
196	0x3bcf5c20	0.006328121
197	0xbd4df82f	-0.050285514
198	0xbd68dd0d	-0.056851435
199	0xbd9ee071	-0.077576526
200	0xbd9a880a	-0.07545479
201	0x3d90c17b	0.070681535
202	0x3e629278	0.22126186
203	0xbd205a41	-0.039148573
204	0xbd15e013	-0.036590647
205	0xbd86dd95	-0.06585232
206	0x3d61bec6	0.055113576
207	0x3e540123	0.20703559
208	0x3d543c36	0.051815234
209	0x3c3d1b8f	0.011542215
210	0xbce99667	-0.0285141
211	0x3d8da05d	0.069153525
212	0x3de1e6bc	0.11030337
213	0xbdaa1e5a	-0.0830657
214	0xbe1819d7	-0.14853607
215	0xbd8d213d	-0.06891105
216	0xbe11e2b6	-0.1424664
217	0xbe3670e5	-0.17816503
218	0xbdfe2ad3	-0.12410512
219	0xbe1f26fc	-0.15542215
220	0xbd81b4df	-0.063333265
221	0xbe4c3524	-0.19942147
222	0xbe83e0f5	-0.25757566
223	0xbe9c4be0	-0.30526638
224	0xbe2d0d30	-0.16899562
225	0xbcba5984	-0.022747763
226	0xbd56dbc8	-0.052455693
227	0x3d9be1f5	0.07611457
228	0xbd0ce816	-0.034401022
229	0xbd3d4d70	-0.04621643
230	0xbd939aad	-0.072072364
231	0xbdfa4bf6	-0.1222152
232	0x3e028ccf	0.12749027
233	0x3e32d9d2	0.17465904
234	0xba0526d3	-0.00050793326
235	0xbd8498f1	-0.06474484
236	0xbde9d345	-0.114172496
237	0xbd301721	-0.042990807
238	0x3e3e99ac	0.18613309
239	0xbaf13551	-0.001840273
240	0xbe0c9b7e	-0.1373119
241	0xbdb01bf2	-0.0859908
242	0x3de221a1	0.110415705
243	0x3d192391	0.037387434
244	0x3d4cc434	0.0499918
245	0xbc6530eb	-0.013988714
246	0xbc619899	-0.013769292
247	0xbdc34be1	-0.09535957
248	0xbdab1164	-0.083529264
249	0xbd0ec719	-0.034857843
250	0x3c8f4a24	0.017491408
251	0xbcb2bcc1	-0.02181852
252	0xbd27a841	-0.040931944
253	0x3d8b1fba	0.06793161
254	0x3cf99f32	0.030471418
255	0x3d963874	0.07334986

fc2.bias f4 [48]
0	0x3d9dc2cd	0.07703171
1	0xbdf24e31	-0.1183132
2	0x3ded7da9	0.115962334
3	0xbccf830d	-0.025331045
4	0x3e267464	0.16255337
5	0x3c66c6c1	0.014085473
6	0xbd9e5ea8	-0.07732898
7	0xbc334cb4	-0.01094358
8	0xbca7f46c	-0.020502292
9	0x3e3ad87e	0.18246648
10	0x3e413d7c	0.1887111
11	0xbdee25e6	-0.11628322
12	0x3cec8d64	0.028876014
13	0xbdff59fb	-0.12468334
14	0x3ca9a943	0.020710593
15	0x3d6d34f8	0.057911843
16	0x3de7c01a	0.11315937
17	0xbc2d830d	-0.010590327
18	0xbe273efc	-0.1633262
19	0x3d4a2d2a	0.049359478
20	0x3e3af793	0.18258505
21	0x3dab11ad	0.08352981
22	0xbe20a555	-0.15688069
23	0x3d969d7d	0.07354257
24	0xbd47ce57	-0.048780765
25	0xbe09fcb3	-0.13475303
26	0xbc4a524d	-0.012348724
27	0xbe1e6cb2	-0.15471151
28	0x3e21f709	0.15816893
29	0x3e3779e2	0.17917588
30	0x3d925510	0.07145131
31	0x3e9e7b4f	0.30953452
32	0x3d68932d	0.056780983
33	0x3dfd4062	0.12365796
34	0x3e1e21e1	0.15442611
35	0xbc87f0cb	-0.016594311
36	0xbe5bf90c	-0.21481723
37	0xbd5e699e	-0.054299943
38	0xbd891344	-0.06693128
39	0x3d8e18bd	0.06938312
40	0x3ca349ac	0.01993259
41	0x3e5ba8f0	0.21451163
42	0xbe2f5ede	-0.17126033
43	0x3e29462f	0.16530679
44	0x3e4d96bd	0.20077033
45	0xbda24928	-0.0792411
46	0xbe1385b2	-0.1440647
47	0xbd2336db	-0.039847236

fc2.weight f4 [48, 120]
0	0x3e5bae07	0.21453105
1	0x3e4616b8	0.19344604
2	0x3d09facb	0.03368644
3	0xbdd09c7d	-0.10186098
4	0xbda5c6ff	-0.08094596
5	0x3de80b6e	0.11330305
6	0x3cc09ad2	0.023511324
7	0x3d71d08b	0.059036773
8	0xbda13909	-0.07872207
9	0xbe185f39	-0.14880075
10	0x3db7967e	0.08964251
11	0xbdaff766	-0.085921094
12	0x3de2498f	0.110491864
13	0xbdafaaf0	-0.085775256
14	0x3d8183e1	0.06323982
15	0x3e0c2564	0.13686138
16	0xbe743574	-0.23848516
17	0x3d5bd0c4	0.05366589
18	0x3d6123d4	0.05496581
19	0xbdb21f02	-0.086973205
20	0x3c987e2d	0.018614853
21	0xbdf406da	-0.11915369
22	0xbd87cd71	-0.06630982
23	0x3eb5e067	0.35522768
24	0x3e3215d7	0.17391144
25	0x3dc4d817	0.09611528
26	0xbdd37f8b	-0.10327061
27	0xbe521f2a	-0.205197
28	0xbe796d28	-0.24358046
29	0xbcf63d5b	-0.030058553
30	0x3ec2de09	0.38060024
31	0xbc865c3e	-0.016401406
32	0xbe5d10da	-0.2158846
33	0x3eb7c442	0.3589192
34	0xbe217b78	-0.15769756
35	0xbd12bd7d	-0.03582524
36	0xbcab7301	-0.020928862
37	0x3dddde43	0.10833409
38	0xbd6e94ad	-0.058247257
39	0xbe2ea251	-0.17054106
40	0xbebdd24c	-0.37074506
41	0x3ea6ed8a	0.32603103
42	0xbd2ac5e6	-0.041692637
43	0xbdfe59fd	-0.12419508
44	0xbcbd3c35	-0.023099998
45	0xbe195299	-0.14972915
46	0xbd7920dc	-0.060822353
47	0xbce776e4	-0.028254934
48	0x3dfce398	0.123480976
49	0x3e5c8cff	0.2153816
50	0x3d7444df	0.059635993
51	0xbcfa9103	-0.030586725
52	0xbda623a9	-0.081122704
53	0x3de1be7a	0.11022659
54	0x3cca3ed5	0.024688164
55	0x3b87cd92	0.004144379
56	0xbe96310d	-0.29334298
57	0xbc8ad4b8	-0.016947135
58	0xbca10137	-0.0196539
59	0xbd2ec43f	-0.042667624
60	0x3d9efbd2	0.07762875
61	0xbdbc017e	-0.09179972
62	0xbd908dc2	-0.07058288
63	0xba851b56	-0.0010155241
64	0x3c1beb25	0.009516512
65	0xbe14c13b	-0.14526837
66	0xbca81f9c	-0.020522885
67	0xbe1daf51	-0.15398909
68	0xbca61338	-0.020272836
69	0xbde1dc6a	-0.11028369
70	0x3eb0641a	0.3445137
71	0x3e028001	0.12744142
72	0xbe1f9bbd	-0.15586753
73	0xbea56f18	-0.3231132
74	0x3e61fb84	0.22068602
75	0x3dc31473	0.09525385
76	0x3e2f3f9a	0.17114106
77	0x3e322b47	0.17399321
78	0xbd497e0a	-0.049192466
79	0xbd2d10e2	-0.04225243
80	0xbcc22274	-0.02369807
81	0x3dcccee8	0.10000402
82	0xbcb884d8	-0.022524282
83	0xbc9a9a68	-0.018872455
84	0x3e6534e2	0.22383454
85	0x3d7f0b02	0.062266357
86	0x3d845538	0.06461567
87	0xbea7c9f8	-0.32771277
88	0xbdd2e46d	-0.10297475
89	0x3e17bf5b	0.1481909
90	0x3e575328	0.21027815
91	0xbd256f38	-0.04038927
92	0x3e02bf89	0.12768377
93	0xbe16b780	-0.14718437
94	0xbe219b4a	-0.15781894
95	0x3d9bd18d	0.07608328
96	0xbead2d54	-0.33823645
97	0xbd97c20d	-0.07410059
98	0xbc8507dd	-0.016239101
99	0x3ca60448	0.020265713
100	0x3d72e046	0.059295915
101	0xbe914e3a	-0.28379995
102	0xbdd1160e	-0.10209285
103	0xbdbf1efc	-0.09332082
104	0x3d896ee9	0.067106076
105	0x3e2efe40	0.17089176
106	0x3de8274d	0.11335621
107	0xbe6b5c99	-0.22984542
108	0x3e62c83a	0.22146693
109	0xbddb53a8	-0.107093155
110	0xbd6abd1e	-0.057309262
111	0xbdea18d4	-0.11430517
112	0x3d03675a	0.032080986
113	0xbdcf0fe2	-0.10110451
114	0xbd060fa5	-0.032729764
115	0x3d632094	0.05545099
116	0x3d23833d	0.03992008
117	0xbd18adba	-0.037275054
118	0x3e2559f1	0.16147591
119	0x3df8df2b	0.12151941
120	0xbe39491d	-0.18094297
121	0xbcda2d0d	-0.02663281
122	0xbd9919d4	-0.074756294
123	0xbe12967e	-0.1431522
124	0xbd288825	-0.041145463
125	0x3d6e98dd	0.05825125
126	0x3b0d9f81	0.0021609964
127	0x3b4d9ed4	0.0031375187
128	0x3d42f1c6	0.047593854
129	0xbd198960	-0.037484527
130	0x3d35ca65	0.04438247
131	0x3cd8cfdd	0.026466304
132	0x3db7e91e	0.089800104
133	0xbddee4f9	-0.10883517
134	0x3d345c8b	0.04403357
135	0xbbca85ba	-0.006180492
136	0x3e13a2ca	0.14417568
137	0x3ebed8db	0.37274823
138	0xbd89515c	-0.06704971
139	0xbdae0ed7	-0.08498924
140	0xbdd0a362	-0.10187413
141	0xbd347036	-0.044052325
142	0xbd9ed9f7	-0.07756417
143	0x3b800c5a	0.0039077224
144	0xbe19c9e6	-0.15018424
145	0xbdc2984a	-0.09501703
146	0xbe674647	-0.22585402
147	0xbe3f4a1b	-0.18680613
148	0x3eb00aeb	0.3438333
149	0x3e544c4e	0.20732233
150	0xbde82203	-0.11334612
151	0xbb2dc3a9	-0.0026514328
152	0x3e1b4549	0.15163149
153	0xbd7c2ee2	-0.06156815
154	0x3e479870	0.19491744
155	0xbc914cd7	-0.017736835
156	0x3ea90754	0.33013403
157	0xbddf8736	-0.10914461
158	0xbe3cab6d	-0.18424769
159	0xbd8b4ca2	-0.06801726
160	0x3d87cf27	0.06631308
161	0x3db77a17	0.08958834
162	0xbe1b1cff	-0.1514778
163	0x3d80b720	0.06284928
164	0x3d1a8b79	0.037730668
165	0x3e568cbb	0.20952122
166	0xbd523ef0	-0.051329553
167	0x3cc6d620	0.024272025
168	0xbd5da120	-0.05410874
169	0xbd4126f5	-0.047156293
170	0x3d05819f	0.03259432
171	0xbcc2d837	-0.02378474
172	0xbe2ce913	-0.16885786
173	0x3e31a034	0.17346269
174	0x3ebc0a4a	0.367266
175	0xbd75e8da	-0.060036518
176	0xbd8203b5	-0.06348363
177	0xbe36ba2c	-0.17844456
178	0xbdd3aaab	-0.10335287
179	0x3df9b4b6	0.12192671
180	0xbe34efca	-0.17669597
181	0xbc02475c	-0.007951584
182	0xbdb21c5b	-0.086968146
183	0xbdd75f33	-0.10516205
184	0xbd1a883c	-0.03772758
185	0x3beb9265	0.0071890824
186	0x3d30c8e8	0.04316035
187	0x3e125054	0.14288455
188	0x3e0f3cf4	0.13988096
189	0xbe042cbc	-0.1290769
190	0xbd00fe76	-0.031492673
191	0xbcb3cc35	-0.02194796
192	0x3e17929c	0.14802021
193	0xbe05c1a6	-0.13062152
194	0xbe2c0670	-0.1679933
195	0xbcf5611a	-0.029953528
196	0xbd36b937	-0.04461023
197	0xbceeed70	-0.029165953
198	0x3d97913f	0.0740075
199	0x3dc9cde0	0.09853721
200	0x3d9ed97b	0.07756325
201	0xbe110749	-0.14162935
202	0x3c7a053d	0.015260038
203	0x3d0476f2	0.032339998
204	0xbc251b3c	-0.010077294
205	0x3caafb09	0.020871656
206	0xbceba7fe	-0.028766628
207	0xbe1803bb	-0.14845173
208	0x3d2fe691	0.042944495
209	0xbdb7c06c	-0.089722484
210	0x3ea35dc2	0.3190747
211	0xbe0672d2	-0.13129738
212	0xbe1765d5	-0.1478494
213	0xbd9c27f2	-0.076248065
214	0x3e798f9e	0.24371192
215	0xbe87daaf	-0.2653403
216	0xbd818dcf	-0.06325876
217	0xbd8ac9ab	-0.06776746
218	0x3c7fb41a	0.015606904
219	0xbd5abaec	-0.05340092
220	0xbcaca9fa	-0.021077145
221	0xbd8e9297	-0.069615535
222	0xb9c94f96	-0.00038397004
223	0xbe530782	-0.20608333
224	0x3d36c028	0.04461685
225	0xbe97d0a4	-0.29651368
226	0xbe8670c7	-0.26257917
227	0x3e1c16ec	0.15243119
228	0xbd0bbf05	-0.034117717
229	0x3e5aee6e	0.21380016
230	0xbe3e2849	-0.18570055
231	0x3de5fcc9	0.112298556
232	0x3df62884	0.120194465
233	0xbdc193df	-0.09452032
234	0xbde5988c	-0.11210737
235	0x3ddb8bc3	0.10720017
236	0x3d9dbfd3	0.07702603
237	0x3b9a90b2	0.004716956
238	0xbcb58b1b	-0.022161057
239	0xbebb6d36	-0.3660676
240	0xbe2c7dfc	-0.16844934
241	0xbe8153e4	-0.25259316
242	0x3db76ef2	0.08956708
243	0xbe86857b	-0.26273713
244	0x3da8fc85	0.08251289
245	0xbd5c3a96	-0.05376681
246	0xbe72426c	-0.2365815
247	0x3d8aead9	0.06783075
248	0x3be2e1f7	0.0069239098
249	0x3e158d42	0.14604667
250	0x3d2119ce	0.03933125
251	0xbd920a12	-0.07130827
252	0x3da77442	0.08176471
253	0xbd115d34	-0.035489276
254	0x3e2208d4	0.1582368
255	0x3e4a4469	0.19752659

fc3.bias f4 [24]
0	0xbdeadfbf	-0.114684574
1	0x3e091ac4	0.13389117
2	0xbe02ec47	-0.12785445
3	0xbe0b8704	-0.13625723
4	0xbee01bc7	-0.43771192
5	0xbda794f3	-0.08182707
6	0xbe0850b3	-0.13312034
7	0x3e931e8d	0.28734246
8	0x3e3a165c	0.18172592
9	0xbdeb2bb2	-0.114829436
10	0x3e197106	0.14984521
11	0x3e2d9f7a	0.16955367
12	0x3b6b5195	0.003590678
13	0xbe9f498f	-0.31110808
14	0x3e8b5b93	0.27218303
15	0xbe7b8215	-0.24561341
16	0x3c9f9e42	0.019484643
17	0xbe1c5f77	-0.15270792
18	0x3e49004e	0.19629022
19	0x3df87d30	0.121332526
20	0x3c8f2395	0.017473022
21	0x3e810dbb	0.25205788
22	0xbe6cedfe	-0.23137662
23	0x3d83af62	0.06429936

fc3.weight f4 [24, 48]
0	0x3f112c33	0.5670807
1	0xbd94b83b	-0.07261702
2	0x3ec06dca	0.37583762
3	0xbe3bf6a5	-0.18355806
4	0xbeb3662c	-0.35038888
5	0xbd3f97ae	-0.046775512
6	0x3ecf7211	0.40516713
7	0xbcf64b1b	-0.03006511
8	0xbe862cb1	-0.26205972
9	0xbe5eec01	-0.21769716
10	0xbee3dfe5	-0.44506755
11	0x3e6d7f68	0.23193133
12	0xbc043ae9	-0.008070686
13	0xbdcf9f62	-0.10137822
14	0x3d823bfd	0.06359098
15	0x3e1103f1	0.1416166
16	0x3ec669c1	0.3875256
17	0xbd4dc45c	-0.05023609
18	0xbda51a70	-0.08061683
19	0x3dfbd608	0.122966826
20	0xbe1fdde1	-0.15611984
21	0xbe03fbff	-0.12889098
22	0xbd889e7a	-0.06670852
23	0xbe47deda	-0.19518605
24	0xbd86230e	-0.06549655
25	0xbe124677	-0.14284693
26	0xbe1d0279	-0.15332974
27	0x3eb90dec	0.36143434
28	0xbe10a386	-0.14124879
29	0xbd596332	-0.053073116
30	0x3e130956	0.1435903
31	0x3e898bf1	0.2686458
32	0xbf00e376	-0.5034708
33	0x3d98fcb5	0.07470075
34	0x3ef3a9b0	0.475904
35	0x3d8eb18f	0.0696746
36	0x3d5dfcb4	0.054196075
37	0xbe1f67f1	-0.15566994
38	0x3dc630e3	0.09677293
39	0xbd84326d	-0.064549305
40	0xbd61ef2f	-0.055159744
41	0x3e947118	0.28992534
42	0xbd3441eb	-0.044008177
43	0xbdb94abf	-0.0904746
44	0x3de4016b	0.11133083
45	0xbe370847	-0.17874251
46	0xbdbce8a1	-0.09224058
47	0xbe6bca70	-0.23026443
48	0xbef6280f	-0.48077437
49	0x3df6aec6	0.12045054
50	0x3f12e0df	0.57374376
51	0xbcd85f93	-0.02641276
52	0xbdd3e4d1	-0.10346378
53	0xbc64c70b	-0.013963471
54	0xbe3598cd	-0.1773407
55	0xbdd41dc6	-0.10357241
56	0xbe25f3c9	-0.16206278
57	0x3db7fabb	0.0898337
58	0xbe42d469	-0.1902634
59	0xbbff0eb4	-0.007783735
60	0x3ed52e58	0.4163692
61	0xbd6ff376	-0.05858179
62	0x3ccf6381	0.025316002
63	0xbd0519cb	-0.0324953
64	0xbe682db8	-0.2267369
65	0x3e0467e0	0.1293025
66	0xbe751acd	-0.23936005
67	0xbe6d913a	-0.23199931
68	0xbd53a666	-0.05167236
69	0x3e16767f	0.1469364
70	0xbdad83a8	-0.08472377
71	0x3f4b5261	0.79422575
72	0x3d7d6baf	0.061870273
73	0xbda064a1	-0.078316934
74	0xbde6d21c	-0.11270544
75	0xbe23dbb8	-0.16001785
76	0x3e8d69c6	0.2761976
77	0xbeb0290e	-0.34406322
78	0xbde7a02f	-0.113098495
79	0x3e9c6f3f	0.30553624
80	0xbead6051	-0.33862546
81	0x3eb394db	0.35074505
82	0xbe9eb5e5	-0.3099815
83	0xbd89b3b1	-0.067237265
84	0x3d043db1	0.032285396
85	0x3e3fe11e	0.18738219
86	0xbe8300ed	-0.25586644
87	0xbea01e92	-0.31273323
88	0xbdbfa374	-0.09357348
89	0xbd8b089a	-0.0678875
90	0x3e09d46f	0.13459943
91	0xbe089222	-0.13336995
92	0x3e4a35c5	0.19747074
93	0xbcd8007f	-0.026367424
94	0xbdd26b14	-0.1027433
95	0xbda206e0	-0.079114676
96	0xbef52a84	-0.47884
97	0x3e8982d2	0.2685762
98	0x3e75ea02	0.24015048
99	0x3f328bb6	0.6974443
100	0xbec24d8e	-0.37949795
101	0xbe0574f6	-0.13032898
102	0x3ea38345	0.31936088
103	0xbdb0905a	-0.08621283
104	0xbe4b15fd	-0.19832607
105	0x3e9b99bd	0.3039073
106	0xbdadfcca	-0.08495481
107	0xbe5b2283	-0.21399884
108	0x3e426b91	0.18986346
109	0x3d12c84f	0.03583556
110	0xbe2f5fc4	-0.17126375
111	0x3c1d125f	0.0095869
112	0xbeda8bd7	-0.42684814
113	0x3e16ca06	0.14725503
114	0xbd8d97ea	-0.06913741
115	0x3ef9b3af	0.487699
116	0x3d29c4b8	0.04144737
117	0x3e820140	0.2539158
118	0xbc385539	-0.011250787
119	0xbe29244a	-0.1651775
120	0xbe19de72	-0.15026262
121	0x3e26720f	0.16254447
122	0x3ec30ffb	0.3809813
123	0xbdf9cc24	-0.1219714
124	0xbed97e7a	-0.42479306
125	0xbe358efb	-0.17730324
126	0x3d5d0b78	0.053966016
127	0xbe3a28e4	-0.18179661
128	0xbe164ff1	-0.14678933
129	0xbe021ef0	-0.12707114
130	0xbd7176ae	-0.058951072
131	0xbd3a1ad0	-0.045435727
132	0xbe0a27b1	-0.13491704
133	0xbb3bc70b	-0.0028652574
134	0x3dffe11e	0.124941096
135	0x3e92ad98	0.28648067
136	0xbe8e302e	-0.27771133
137	0xbe8db20e	-0.27674907
138	0xbe205e6b	-0.15661018
139	0x3cbe659a	0.023241807
140	0xbee03c5e	-0.43796057
141	0xbe04d6fa	-0.12972632
142	0x3dc20e8a	0.09475429
143	0xbd8f23cf	-0.06989252
144	0x3c67842a	0.014130631
145	0xbe02c89b	-0.12771837
146	0xbe2ab622	-0.1667104
147	0xbe1e13c3	-0.15437226
148	0xbd05bd2c	-0.03265111
149	0x3e2d15c3	0.16902833
150	0xbc3ff80e	-0.011716856
151	0x3d6ccce6	0.057812594
152	0x3d91524f	0.07095777
153	0xbe8ce73b	-0.27520165
154	0x3e629105	0.22125633
155	0xb9e73cec	-0.00044105144
156	0xbe352085	-0.17688186
157	0xbdc99920	-0.098436594
158	0x3e35e12b	0.17761676
159	0x3cf47e94	0.029845513
160	0x3dddcc20	0.108299494
161	0xbd820345	-0.0634828
162	0x3c19f8f0	0.00939773
163	0xbe507230	-0.20356059
164	0xbdccc2b4	-0.09998074
165	0xbe911a58	-0.2834041
166	0x3cff32a7	0.031152083
167	0x3edf69b2	0.43635327
168	0xbd5507c9	-0.052009378
169	0x3f374220	0.71585274
170	0xbe1e9dd7	-0.15489899
171	0x3f0fc68b	0.5616233
172	0x3ef9620c	0.48707616
173	0x3d28c5c1	0.041204218
174	0xbe4fe1d0	-0.20300984
175	0xbe1e1664	-0.15438229
176	0x3dd1bd00	0.10241127
177	0xbe265f17	-0.16247211
178	0xbe4b2fa8	-0.19842398
179	0xbdedd014	-0.116119534
180	0xbdf86f1f	-0.1213057
181	0xbea0887f	-0.31354138
182	0x3ea38961	0.3194075
183	0x3d955fce	0.07293664
184	0xbeac709a	-0.33679658
185	0xbe583e8b	-0.21117608
186	0x3e880050	0.26562738
187	0xbe639511	-0.22224833
188	0x3e4d3a35	0.20041735
189	0x3c97327a	0.018456686
190	0x3f20c71f	0.62803835
191	0xbd1cd795	-0.038291533
192	0x3f13f83f	0.5780067
193	0x3e356b09	0.17716612
194	0x3eeac099	0.45850065
195	0xbe8c6dec	-0.27427614
196	0xbd1389e3	-0.03602017
197	0xbde24487	-0.11048227
198	0x3e5f59f6	0.21811661
199	0xbd94719b	-0.07248231
200	0xbc8ac1fd	-0.016938204
201	0x3e629e9d	0.22130819
202	0xbe6a6d85	-0.22893341
203	0x3d849c07	0.06475072
204	0x3ebcc59c	0.36869514
205	0xbd897a11	-0.067127354
206	0x3e5ec19c	0.21753544
207	0xbeab85c8	-0.33500504
208	0xbee8b65f	-0.45451638
209	0xbe115367	-0.14191972
210	0x3c22edb3	0.009944367
211	0xbdd2c1a7	-0.102908425
212	0xbd06548e	-0.03279548
213	0x3ef7bc78	0.48385978
214	0xbe11493a	-0.1418809
215	0x3e1f84a9	0.1557795
216	0x3d90eef0	0.07076824
217	0xbe853e9f	-0.2602434
218	0x3ed21ba2	0.41036707
219	0x3c5264cc	0.012841415
220	0xbea3777a	-0.3192709
221	0xbd37434c	-0.044741914
222	0xbe025d7d	-0.12730975
223	0x3e0abbb3	0.13548164
224	0xbefa8b88	-0.4893458
225	0x3cbdc14a	0.023163456
226	0xbd3d06af	-0.046148952
227	0x3bff89c4	0.0077984054
228	0xbe432895	-0.1905845
229	0xbe09542d	-0.13411017
230	0x3e6c201c	0.23059124
231	0xbd79b6ea	-0.060965456
232	0x3dfce2e9	0.12347967
233	0x3c84edf3	0.016226744
234	0x3e15af39	0.14617623
235	0xbdbc8356	-0.09204738
236	0xbe2e7838	-0.17038047
237	0x3ca9fb45	0.020749697
238	0x3e60a6dd	0.21938653
239	0x3eca8633	0.3955551
240	0xbe6b5fbd	-0.2298574
241	0xbe6b1a0d	-0.22959156
242	0x3f08792a	0.5330988
243	0x3e485afc	0.19565958
244	0xbe5c35f1	-0.21504952
245	0xbcd713bb	-0.026254525
246	0x3f149f50	0.5805559
247	0x3e48b654	0.19600803
248	0xbdb92f40	-0.09042215
249	0x3d2cefea	0.042220987
250	0xbe463856	-0.19357428
251	0x3e7f83b6	0.24952587
252	0xbc99618d	-0.018723274
253	0xbded163c	-0.115765065
254	0xbd433264	-0.047655478
255	0x3e33c452	0.17555359
